{"format": "graph-model", "generatedBy": "2.3.1", "convertedBy": "TensorFlow.js Converter v2.7.0", "userDefinedMetadata": {"signature": {"inputs": {"input_1:0": {"name": "input_1:0", "dtype": "DT_FLOAT", "tensorShape": {"dim": [{"size": "-1"}, {"size": "256"}, {"size": "256"}, {"size": "1"}]}}}, "outputs": {"Identity:0": {"name": "Identity:0", "dtype": "DT_FLOAT", "tensorShape": {"dim": [{"size": "-1"}, {"size": "256"}, {"size": "256"}, {"size": "3"}]}}}}}, "modelTopology": {"node": [{"name": "StatefulPartitionedCall/functional_1/conv2d_transpose_8/strided_slice/stack", "op": "Const", "attr": {"dtype": {"type": "DT_INT32"}, "value": {"tensor": {"dtype": "DT_INT32", "tensorShape": {"dim": [{"size": "1"}]}}}}}, {"name": "StatefulPartitionedCall/functional_1/conv2d_transpose_8/strided_slice/stack_1", "op": "Const", "attr": {"dtype": {"type": "DT_INT32"}, "value": {"tensor": {"dtype": "DT_INT32", "tensorShape": {"dim": [{"size": "1"}]}}}}}, {"name": "StatefulPartitionedCall/functional_1/conv2d_transpose_8/strided_slice/stack_2", "op": "Const", "attr": {"value": {"tensor": {"dtype": "DT_INT32", "tensorShape": {"dim": [{"size": "1"}]}}}, "dtype": {"type": "DT_INT32"}}}, {"name": "StatefulPartitionedCall/functional_1/conv2d_transpose_8/stack/1", "op": "Const", "attr": {"dtype": {"type": "DT_INT32"}, "value": {"tensor": {"dtype": "DT_INT32", "tensorShape": {}}}}}, {"name": "StatefulPartitionedCall/functional_1/conv2d_transpose_8/stack/2", "op": "Const", "attr": {"value": {"tensor": {"dtype": "DT_INT32", "tensorShape": {}}}, "dtype": {"type": "DT_INT32"}}}, {"name": "StatefulPartitionedCall/functional_1/conv2d_transpose_8/stack/3", "op": "Const", "attr": {"value": {"tensor": {"dtype": "DT_INT32", "tensorShape": {}}}, "dtype": {"type": "DT_INT32"}}}, {"name": "unknown_70", "op": "Const", "attr": {"value": {"tensor": {"dtype": "DT_FLOAT", "tensorShape": {"dim": [{"size": "4"}, {"size": "4"}, {"size": "3"}, {"size": "16"}]}}}, "dtype": {"type": "DT_FLOAT"}}}, {"name": "StatefulPartitionedCall/functional_1/sequential_16/conv2d_transpose_7/strided_slice/stack", "op": "Const", "attr": {"dtype": {"type": "DT_INT32"}, "value": {"tensor": {"dtype": "DT_INT32", "tensorShape": {"dim": [{"size": "1"}]}}}}}, {"name": "StatefulPartitionedCall/functional_1/sequential_16/conv2d_transpose_7/strided_slice/stack_1", "op": "Const", "attr": {"dtype": {"type": "DT_INT32"}, "value": {"tensor": {"dtype": "DT_INT32", "tensorShape": {"dim": [{"size": "1"}]}}}}}, {"name": "StatefulPartitionedCall/functional_1/sequential_16/conv2d_transpose_7/strided_slice/stack_2", "op": "Const", "attr": {"value": {"tensor": {"dtype": "DT_INT32", "tensorShape": {"dim": [{"size": "1"}]}}}, "dtype": {"type": "DT_INT32"}}}, {"name": "StatefulPartitionedCall/functional_1/sequential_16/conv2d_transpose_7/stack/1", "op": "Const", "attr": {"dtype": {"type": "DT_INT32"}, "value": {"tensor": {"dtype": "DT_INT32", "tensorShape": {}}}}}, {"name": "StatefulPartitionedCall/functional_1/sequential_16/conv2d_transpose_7/stack/2", "op": "Const", "attr": {"dtype": {"type": "DT_INT32"}, "value": {"tensor": {"dtype": "DT_INT32", "tensorShape": {}}}}}, {"name": "StatefulPartitionedCall/functional_1/sequential_16/conv2d_transpose_7/stack/3", "op": "Const", "attr": {"value": {"tensor": {"dtype": "DT_INT32", "tensorShape": {}}}, "dtype": {"type": "DT_INT32"}}}, {"name": "unknown_65", "op": "Const", "attr": {"dtype": {"type": "DT_FLOAT"}, "value": {"tensor": {"dtype": "DT_FLOAT", "tensorShape": {"dim": [{"size": "4"}, {"size": "4"}, {"size": "8"}, {"size": "32"}]}}}}}, {"name": "StatefulPartitionedCall/functional_1/sequential_15/conv2d_transpose_6/strided_slice/stack", "op": "Const", "attr": {"value": {"tensor": {"dtype": "DT_INT32", "tensorShape": {"dim": [{"size": "1"}]}}}, "dtype": {"type": "DT_INT32"}}}, {"name": "StatefulPartitionedCall/functional_1/sequential_15/conv2d_transpose_6/strided_slice/stack_1", "op": "Const", "attr": {"value": {"tensor": {"dtype": "DT_INT32", "tensorShape": {"dim": [{"size": "1"}]}}}, "dtype": {"type": "DT_INT32"}}}, {"name": "StatefulPartitionedCall/functional_1/sequential_15/conv2d_transpose_6/strided_slice/stack_2", "op": "Const", "attr": {"value": {"tensor": {"dtype": "DT_INT32", "tensorShape": {"dim": [{"size": "1"}]}}}, "dtype": {"type": "DT_INT32"}}}, {"name": "StatefulPartitionedCall/functional_1/sequential_15/conv2d_transpose_6/stack/1", "op": "Const", "attr": {"value": {"tensor": {"dtype": "DT_INT32", "tensorShape": {}}}, "dtype": {"type": "DT_INT32"}}}, {"name": "StatefulPartitionedCall/functional_1/sequential_15/conv2d_transpose_6/stack/2", "op": "Const", "attr": {"dtype": {"type": "DT_INT32"}, "value": {"tensor": {"dtype": "DT_INT32", "tensorShape": {}}}}}, {"name": "StatefulPartitionedCall/functional_1/sequential_15/conv2d_transpose_6/stack/3", "op": "Const", "attr": {"dtype": {"type": "DT_INT32"}, "value": {"tensor": {"dtype": "DT_INT32", "tensorShape": {}}}}}, {"name": "unknown_60", "op": "Const", "attr": {"dtype": {"type": "DT_FLOAT"}, "value": {"tensor": {"dtype": "DT_FLOAT", "tensorShape": {"dim": [{"size": "4"}, {"size": "4"}, {"size": "16"}, {"size": "64"}]}}}}}, {"name": "StatefulPartitionedCall/functional_1/sequential_14/conv2d_transpose_5/strided_slice/stack", "op": "Const", "attr": {"dtype": {"type": "DT_INT32"}, "value": {"tensor": {"dtype": "DT_INT32", "tensorShape": {"dim": [{"size": "1"}]}}}}}, {"name": "StatefulPartitionedCall/functional_1/sequential_14/conv2d_transpose_5/strided_slice/stack_1", "op": "Const", "attr": {"dtype": {"type": "DT_INT32"}, "value": {"tensor": {"dtype": "DT_INT32", "tensorShape": {"dim": [{"size": "1"}]}}}}}, {"name": "StatefulPartitionedCall/functional_1/sequential_14/conv2d_transpose_5/strided_slice/stack_2", "op": "Const", "attr": {"value": {"tensor": {"dtype": "DT_INT32", "tensorShape": {"dim": [{"size": "1"}]}}}, "dtype": {"type": "DT_INT32"}}}, {"name": "StatefulPartitionedCall/functional_1/sequential_14/conv2d_transpose_5/stack/1", "op": "Const", "attr": {"value": {"tensor": {"dtype": "DT_INT32", "tensorShape": {}}}, "dtype": {"type": "DT_INT32"}}}, {"name": "StatefulPartitionedCall/functional_1/sequential_14/conv2d_transpose_5/stack/2", "op": "Const", "attr": {"value": {"tensor": {"dtype": "DT_INT32", "tensorShape": {}}}, "dtype": {"type": "DT_INT32"}}}, {"name": "StatefulPartitionedCall/functional_1/sequential_14/conv2d_transpose_5/stack/3", "op": "Const", "attr": {"dtype": {"type": "DT_INT32"}, "value": {"tensor": {"dtype": "DT_INT32", "tensorShape": {}}}}}, {"name": "unknown_55", "op": "Const", "attr": {"value": {"tensor": {"dtype": "DT_FLOAT", "tensorShape": {"dim": [{"size": "4"}, {"size": "4"}, {"size": "32"}, {"size": "128"}]}}}, "dtype": {"type": "DT_FLOAT"}}}, {"name": "StatefulPartitionedCall/functional_1/sequential_13/conv2d_transpose_4/strided_slice/stack", "op": "Const", "attr": {"dtype": {"type": "DT_INT32"}, "value": {"tensor": {"dtype": "DT_INT32", "tensorShape": {"dim": [{"size": "1"}]}}}}}, {"name": "StatefulPartitionedCall/functional_1/sequential_13/conv2d_transpose_4/strided_slice/stack_1", "op": "Const", "attr": {"dtype": {"type": "DT_INT32"}, "value": {"tensor": {"dtype": "DT_INT32", "tensorShape": {"dim": [{"size": "1"}]}}}}}, {"name": "StatefulPartitionedCall/functional_1/sequential_13/conv2d_transpose_4/strided_slice/stack_2", "op": "Const", "attr": {"dtype": {"type": "DT_INT32"}, "value": {"tensor": {"dtype": "DT_INT32", "tensorShape": {"dim": [{"size": "1"}]}}}}}, {"name": "StatefulPartitionedCall/functional_1/sequential_13/conv2d_transpose_4/stack/1", "op": "Const", "attr": {"value": {"tensor": {"dtype": "DT_INT32", "tensorShape": {}}}, "dtype": {"type": "DT_INT32"}}}, {"name": "StatefulPartitionedCall/functional_1/sequential_13/conv2d_transpose_4/stack/2", "op": "Const", "attr": {"dtype": {"type": "DT_INT32"}, "value": {"tensor": {"dtype": "DT_INT32", "tensorShape": {}}}}}, {"name": "StatefulPartitionedCall/functional_1/sequential_13/conv2d_transpose_4/stack/3", "op": "Const", "attr": {"value": {"tensor": {"dtype": "DT_INT32", "tensorShape": {}}}, "dtype": {"type": "DT_INT32"}}}, {"name": "unknown_50", "op": "Const", "attr": {"dtype": {"type": "DT_FLOAT"}, "value": {"tensor": {"dtype": "DT_FLOAT", "tensorShape": {"dim": [{"size": "4"}, {"size": "4"}, {"size": "64"}, {"size": "256"}]}}}}}, {"name": "StatefulPartitionedCall/functional_1/sequential_12/conv2d_transpose_3/strided_slice/stack", "op": "Const", "attr": {"dtype": {"type": "DT_INT32"}, "value": {"tensor": {"dtype": "DT_INT32", "tensorShape": {"dim": [{"size": "1"}]}}}}}, {"name": "StatefulPartitionedCall/functional_1/sequential_12/conv2d_transpose_3/strided_slice/stack_1", "op": "Const", "attr": {"value": {"tensor": {"dtype": "DT_INT32", "tensorShape": {"dim": [{"size": "1"}]}}}, "dtype": {"type": "DT_INT32"}}}, {"name": "StatefulPartitionedCall/functional_1/sequential_12/conv2d_transpose_3/strided_slice/stack_2", "op": "Const", "attr": {"dtype": {"type": "DT_INT32"}, "value": {"tensor": {"dtype": "DT_INT32", "tensorShape": {"dim": [{"size": "1"}]}}}}}, {"name": "StatefulPartitionedCall/functional_1/sequential_12/conv2d_transpose_3/stack/1", "op": "Const", "attr": {"dtype": {"type": "DT_INT32"}, "value": {"tensor": {"dtype": "DT_INT32", "tensorShape": {}}}}}, {"name": "StatefulPartitionedCall/functional_1/sequential_12/conv2d_transpose_3/stack/2", "op": "Const", "attr": {"value": {"tensor": {"dtype": "DT_INT32", "tensorShape": {}}}, "dtype": {"type": "DT_INT32"}}}, {"name": "StatefulPartitionedCall/functional_1/sequential_12/conv2d_transpose_3/stack/3", "op": "Const", "attr": {"value": {"tensor": {"dtype": "DT_INT32", "tensorShape": {}}}, "dtype": {"type": "DT_INT32"}}}, {"name": "unknown_45", "op": "Const", "attr": {"value": {"tensor": {"dtype": "DT_FLOAT", "tensorShape": {"dim": [{"size": "4"}, {"size": "4"}, {"size": "128"}, {"size": "512"}]}}}, "dtype": {"type": "DT_FLOAT"}}}, {"name": "StatefulPartitionedCall/functional_1/sequential_11/conv2d_transpose_2/strided_slice/stack", "op": "Const", "attr": {"value": {"tensor": {"dtype": "DT_INT32", "tensorShape": {"dim": [{"size": "1"}]}}}, "dtype": {"type": "DT_INT32"}}}, {"name": "StatefulPartitionedCall/functional_1/sequential_11/conv2d_transpose_2/strided_slice/stack_1", "op": "Const", "attr": {"value": {"tensor": {"dtype": "DT_INT32", "tensorShape": {"dim": [{"size": "1"}]}}}, "dtype": {"type": "DT_INT32"}}}, {"name": "StatefulPartitionedCall/functional_1/sequential_11/conv2d_transpose_2/strided_slice/stack_2", "op": "Const", "attr": {"dtype": {"type": "DT_INT32"}, "value": {"tensor": {"dtype": "DT_INT32", "tensorShape": {"dim": [{"size": "1"}]}}}}}, {"name": "StatefulPartitionedCall/functional_1/sequential_11/conv2d_transpose_2/stack/1", "op": "Const", "attr": {"dtype": {"type": "DT_INT32"}, "value": {"tensor": {"dtype": "DT_INT32", "tensorShape": {}}}}}, {"name": "StatefulPartitionedCall/functional_1/sequential_11/conv2d_transpose_2/stack/2", "op": "Const", "attr": {"dtype": {"type": "DT_INT32"}, "value": {"tensor": {"dtype": "DT_INT32", "tensorShape": {}}}}}, {"name": "StatefulPartitionedCall/functional_1/sequential_11/conv2d_transpose_2/stack/3", "op": "Const", "attr": {"value": {"tensor": {"dtype": "DT_INT32", "tensorShape": {}}}, "dtype": {"type": "DT_INT32"}}}, {"name": "unknown_40", "op": "Const", "attr": {"dtype": {"type": "DT_FLOAT"}, "value": {"tensor": {"dtype": "DT_FLOAT", "tensorShape": {"dim": [{"size": "4"}, {"size": "4"}, {"size": "256"}, {"size": "1024"}]}}}}}, {"name": "StatefulPartitionedCall/functional_1/sequential_10/conv2d_transpose_1/strided_slice/stack", "op": "Const", "attr": {"value": {"tensor": {"dtype": "DT_INT32", "tensorShape": {"dim": [{"size": "1"}]}}}, "dtype": {"type": "DT_INT32"}}}, {"name": "StatefulPartitionedCall/functional_1/sequential_10/conv2d_transpose_1/strided_slice/stack_1", "op": "Const", "attr": {"value": {"tensor": {"dtype": "DT_INT32", "tensorShape": {"dim": [{"size": "1"}]}}}, "dtype": {"type": "DT_INT32"}}}, {"name": "StatefulPartitionedCall/functional_1/sequential_10/conv2d_transpose_1/strided_slice/stack_2", "op": "Const", "attr": {"value": {"tensor": {"dtype": "DT_INT32", "tensorShape": {"dim": [{"size": "1"}]}}}, "dtype": {"type": "DT_INT32"}}}, {"name": "StatefulPartitionedCall/functional_1/sequential_10/conv2d_transpose_1/stack/1", "op": "Const", "attr": {"value": {"tensor": {"dtype": "DT_INT32", "tensorShape": {}}}, "dtype": {"type": "DT_INT32"}}}, {"name": "StatefulPartitionedCall/functional_1/sequential_10/conv2d_transpose_1/stack/2", "op": "Const", "attr": {"dtype": {"type": "DT_INT32"}, "value": {"tensor": {"dtype": "DT_INT32", "tensorShape": {}}}}}, {"name": "StatefulPartitionedCall/functional_1/sequential_10/conv2d_transpose_1/stack/3", "op": "Const", "attr": {"value": {"tensor": {"dtype": "DT_INT32", "tensorShape": {}}}, "dtype": {"type": "DT_INT32"}}}, {"name": "unknown_35", "op": "Const", "attr": {"value": {"tensor": {"dtype": "DT_FLOAT", "tensorShape": {"dim": [{"size": "4"}, {"size": "4"}, {"size": "512"}, {"size": "512"}]}}}, "dtype": {"type": "DT_FLOAT"}}}, {"name": "StatefulPartitionedCall/functional_1/concatenate/concat/axis", "op": "Const", "attr": {"dtype": {"type": "DT_INT32"}, "value": {"tensor": {"dtype": "DT_INT32", "tensorShape": {}}}}}, {"name": "StatefulPartitionedCall/functional_1/concatenate_1/concat/axis", "op": "Const", "attr": {"dtype": {"type": "DT_INT32"}, "value": {"tensor": {"dtype": "DT_INT32", "tensorShape": {}}}}}, {"name": "StatefulPartitionedCall/functional_1/concatenate_2/concat/axis", "op": "Const", "attr": {"dtype": {"type": "DT_INT32"}, "value": {"tensor": {"dtype": "DT_INT32", "tensorShape": {}}}}}, {"name": "StatefulPartitionedCall/functional_1/concatenate_3/concat/axis", "op": "Const", "attr": {"dtype": {"type": "DT_INT32"}, "value": {"tensor": {"dtype": "DT_INT32", "tensorShape": {}}}}}, {"name": "StatefulPartitionedCall/functional_1/concatenate_4/concat/axis", "op": "Const", "attr": {"value": {"tensor": {"dtype": "DT_INT32", "tensorShape": {}}}, "dtype": {"type": "DT_INT32"}}}, {"name": "StatefulPartitionedCall/functional_1/concatenate_5/concat/axis", "op": "Const", "attr": {"value": {"tensor": {"dtype": "DT_INT32", "tensorShape": {}}}, "dtype": {"type": "DT_INT32"}}}, {"name": "unknown", "op": "Const", "attr": {"value": {"tensor": {"dtype": "DT_FLOAT", "tensorShape": {"dim": [{"size": "4"}, {"size": "4"}, {"size": "1"}, {"size": "8"}]}}}, "dtype": {"type": "DT_FLOAT"}}}, {"name": "StatefulPartitionedCall/functional_1/concatenate_6/concat/axis", "op": "Const", "attr": {"value": {"tensor": {"dtype": "DT_INT32", "tensorShape": {}}}, "dtype": {"type": "DT_INT32"}}}, {"name": "unknown_71", "op": "Const", "attr": {"dtype": {"type": "DT_FLOAT"}, "value": {"tensor": {"dtype": "DT_FLOAT", "tensorShape": {"dim": [{"size": "3"}]}}}}}, {"name": "input_1", "op": "Placeholder", "attr": {"dtype": {"type": "DT_FLOAT"}, "shape": {"shape": {"dim": [{"size": "-1"}, {"size": "256"}, {"size": "256"}, {"size": "1"}]}}}}, {"name": "StatefulPartitionedCall/functional_1/sequential_3/conv2d_2/Conv2D_weights", "op": "Const", "attr": {"dtype": {"type": "DT_FLOAT"}, "value": {"tensor": {"dtype": "DT_FLOAT", "tensorShape": {"dim": [{"size": "4"}, {"size": "4"}, {"size": "8"}, {"size": "16"}]}}}}}, {"name": "StatefulPartitionedCall/functional_1/sequential_3/conv2d_2/Conv2D_bn_offset", "op": "Const", "attr": {"dtype": {"type": "DT_FLOAT"}, "value": {"tensor": {"dtype": "DT_FLOAT", "tensorShape": {"dim": [{"size": "16"}]}}}}}, {"name": "StatefulPartitionedCall/functional_1/sequential_4/conv2d_3/Conv2D_weights", "op": "Const", "attr": {"dtype": {"type": "DT_FLOAT"}, "value": {"tensor": {"dtype": "DT_FLOAT", "tensorShape": {"dim": [{"size": "4"}, {"size": "4"}, {"size": "16"}, {"size": "32"}]}}}}}, {"name": "StatefulPartitionedCall/functional_1/sequential_4/conv2d_3/Conv2D_bn_offset", "op": "Const", "attr": {"dtype": {"type": "DT_FLOAT"}, "value": {"tensor": {"dtype": "DT_FLOAT", "tensorShape": {"dim": [{"size": "32"}]}}}}}, {"name": "StatefulPartitionedCall/functional_1/sequential_5/conv2d_4/Conv2D_weights", "op": "Const", "attr": {"dtype": {"type": "DT_FLOAT"}, "value": {"tensor": {"dtype": "DT_FLOAT", "tensorShape": {"dim": [{"size": "4"}, {"size": "4"}, {"size": "32"}, {"size": "64"}]}}}}}, {"name": "StatefulPartitionedCall/functional_1/sequential_5/conv2d_4/Conv2D_bn_offset", "op": "Const", "attr": {"dtype": {"type": "DT_FLOAT"}, "value": {"tensor": {"dtype": "DT_FLOAT", "tensorShape": {"dim": [{"size": "64"}]}}}}}, {"name": "StatefulPartitionedCall/functional_1/sequential_6/conv2d_5/Conv2D_weights", "op": "Const", "attr": {"dtype": {"type": "DT_FLOAT"}, "value": {"tensor": {"dtype": "DT_FLOAT", "tensorShape": {"dim": [{"size": "4"}, {"size": "4"}, {"size": "64"}, {"size": "128"}]}}}}}, {"name": "StatefulPartitionedCall/functional_1/sequential_10/batch_normalization_9/FusedBatchNormV3/Scaled", "op": "Const", "attr": {"value": {"tensor": {"dtype": "DT_FLOAT", "tensorShape": {"dim": [{"size": "512"}]}}}, "dtype": {"type": "DT_FLOAT"}}}, {"name": "StatefulPartitionedCall/functional_1/sequential_6/conv2d_5/Conv2D_bn_offset", "op": "Const", "attr": {"value": {"tensor": {"dtype": "DT_FLOAT", "tensorShape": {"dim": [{"size": "128"}]}}}, "dtype": {"type": "DT_FLOAT"}}}, {"name": "StatefulPartitionedCall/functional_1/sequential_7/conv2d_6/Conv2D_weights", "op": "Const", "attr": {"dtype": {"type": "DT_FLOAT"}, "value": {"tensor": {"dtype": "DT_FLOAT", "tensorShape": {"dim": [{"size": "4"}, {"size": "4"}, {"size": "128"}, {"size": "256"}]}}}}}, {"name": "StatefulPartitionedCall/functional_1/sequential_7/conv2d_6/Conv2D_bn_offset", "op": "Const", "attr": {"dtype": {"type": "DT_FLOAT"}, "value": {"tensor": {"dtype": "DT_FLOAT", "tensorShape": {"dim": [{"size": "256"}]}}}}}, {"name": "StatefulPartitionedCall/functional_1/sequential_8/conv2d_7/Conv2D_weights", "op": "Const", "attr": {"dtype": {"type": "DT_FLOAT"}, "value": {"tensor": {"dtype": "DT_FLOAT", "tensorShape": {"dim": [{"size": "4"}, {"size": "4"}, {"size": "256"}, {"size": "512"}]}}}}}, {"name": "StatefulPartitionedCall/functional_1/sequential_8/conv2d_7/Conv2D_bn_offset", "op": "Const", "attr": {"dtype": {"type": "DT_FLOAT"}, "value": {"tensor": {"dtype": "DT_FLOAT", "tensorShape": {"dim": [{"size": "512"}]}}}}}, {"name": "StatefulPartitionedCall/functional_1/sequential_9/conv2d_8/Conv2D_weights", "op": "Const", "attr": {"value": {"tensor": {"dtype": "DT_FLOAT", "tensorShape": {"dim": [{"size": "4"}, {"size": "4"}, {"size": "512"}, {"size": "512"}]}}}, "dtype": {"type": "DT_FLOAT"}}}, {"name": "StatefulPartitionedCall/functional_1/sequential_10/batch_normalization_9/FusedBatchNormV3/Offset", "op": "Const", "attr": {"value": {"tensor": {"dtype": "DT_FLOAT", "tensorShape": {"dim": [{"size": "512"}]}}}, "dtype": {"type": "DT_FLOAT"}}}, {"name": "StatefulPartitionedCall/functional_1/sequential_9/conv2d_8/Conv2D_bn_offset", "op": "Const", "attr": {"dtype": {"type": "DT_FLOAT"}, "value": {"tensor": {"dtype": "DT_FLOAT", "tensorShape": {"dim": [{"size": "512"}]}}}}}, {"name": "StatefulPartitionedCall/functional_1/sequential_16/batch_normalization_15/FusedBatchNormV3/Scaled", "op": "Const", "attr": {"dtype": {"type": "DT_FLOAT"}, "value": {"tensor": {"dtype": "DT_FLOAT", "tensorShape": {"dim": [{"size": "8"}]}}}}}, {"name": "StatefulPartitionedCall/functional_1/sequential_16/batch_normalization_15/FusedBatchNormV3/Offset", "op": "Const", "attr": {"dtype": {"type": "DT_FLOAT"}, "value": {"tensor": {"dtype": "DT_FLOAT", "tensorShape": {"dim": [{"size": "8"}]}}}}}, {"name": "StatefulPartitionedCall/functional_1/sequential_15/batch_normalization_14/FusedBatchNormV3/Scaled", "op": "Const", "attr": {"value": {"tensor": {"dtype": "DT_FLOAT", "tensorShape": {"dim": [{"size": "16"}]}}}, "dtype": {"type": "DT_FLOAT"}}}, {"name": "StatefulPartitionedCall/functional_1/sequential_15/batch_normalization_14/FusedBatchNormV3/Offset", "op": "Const", "attr": {"dtype": {"type": "DT_FLOAT"}, "value": {"tensor": {"dtype": "DT_FLOAT", "tensorShape": {"dim": [{"size": "16"}]}}}}}, {"name": "StatefulPartitionedCall/functional_1/sequential_14/batch_normalization_13/FusedBatchNormV3/Scaled", "op": "Const", "attr": {"dtype": {"type": "DT_FLOAT"}, "value": {"tensor": {"dtype": "DT_FLOAT", "tensorShape": {"dim": [{"size": "32"}]}}}}}, {"name": "StatefulPartitionedCall/functional_1/sequential_14/batch_normalization_13/FusedBatchNormV3/Offset", "op": "Const", "attr": {"dtype": {"type": "DT_FLOAT"}, "value": {"tensor": {"dtype": "DT_FLOAT", "tensorShape": {"dim": [{"size": "32"}]}}}}}, {"name": "StatefulPartitionedCall/functional_1/sequential_13/batch_normalization_12/FusedBatchNormV3/Scaled", "op": "Const", "attr": {"dtype": {"type": "DT_FLOAT"}, "value": {"tensor": {"dtype": "DT_FLOAT", "tensorShape": {"dim": [{"size": "64"}]}}}}}, {"name": "StatefulPartitionedCall/functional_1/sequential_13/batch_normalization_12/FusedBatchNormV3/Offset", "op": "Const", "attr": {"dtype": {"type": "DT_FLOAT"}, "value": {"tensor": {"dtype": "DT_FLOAT", "tensorShape": {"dim": [{"size": "64"}]}}}}}, {"name": "StatefulPartitionedCall/functional_1/sequential_12/batch_normalization_11/FusedBatchNormV3/Scaled", "op": "Const", "attr": {"value": {"tensor": {"dtype": "DT_FLOAT", "tensorShape": {"dim": [{"size": "128"}]}}}, "dtype": {"type": "DT_FLOAT"}}}, {"name": "StatefulPartitionedCall/functional_1/sequential_12/batch_normalization_11/FusedBatchNormV3/Offset", "op": "Const", "attr": {"value": {"tensor": {"dtype": "DT_FLOAT", "tensorShape": {"dim": [{"size": "128"}]}}}, "dtype": {"type": "DT_FLOAT"}}}, {"name": "StatefulPartitionedCall/functional_1/sequential_11/batch_normalization_10/FusedBatchNormV3/Scaled", "op": "Const", "attr": {"value": {"tensor": {"dtype": "DT_FLOAT", "tensorShape": {"dim": [{"size": "256"}]}}}, "dtype": {"type": "DT_FLOAT"}}}, {"name": "StatefulPartitionedCall/functional_1/sequential_11/batch_normalization_10/FusedBatchNormV3/Offset", "op": "Const", "attr": {"value": {"tensor": {"dtype": "DT_FLOAT", "tensorShape": {"dim": [{"size": "256"}]}}}, "dtype": {"type": "DT_FLOAT"}}}, {"name": "StatefulPartitionedCall/functional_1/sequential_2/conv2d_1/Conv2D", "op": "Conv2D", "input": ["input_1", "unknown"], "device": "/device:CPU:0", "attr": {"T": {"type": "DT_FLOAT"}, "use_cudnn_on_gpu": {"b": true}, "padding": {"s": "U0FNRQ=="}, "dilations": {"list": {"i": ["1", "1", "1", "1"]}}, "explicit_paddings": {"list": {}}, "strides": {"list": {"i": ["1", "2", "2", "1"]}}, "data_format": {"s": "TkhXQw=="}}}, {"name": "StatefulPartitionedCall/functional_1/sequential_2/leaky_re_lu_1/LeakyRelu", "op": "LeakyRelu", "input": ["StatefulPartitionedCall/functional_1/sequential_2/conv2d_1/Conv2D"], "attr": {"T": {"type": "DT_FLOAT"}, "alpha": {"f": 0.3}}}, {"name": "StatefulPartitionedCall/functional_1/sequential_3/batch_normalization_2/FusedBatchNormV3", "op": "_FusedConv2D", "input": ["StatefulPartitionedCall/functional_1/sequential_2/leaky_re_lu_1/LeakyRelu", "StatefulPartitionedCall/functional_1/sequential_3/conv2d_2/Conv2D_weights", "StatefulPartitionedCall/functional_1/sequential_3/conv2d_2/Conv2D_bn_offset"], "device": "/device:CPU:0", "attr": {"padding": {"s": "U0FNRQ=="}, "fused_ops": {"list": {"s": ["Qmlhc0FkZA=="]}}, "use_cudnn_on_gpu": {"b": true}, "epsilon": {"f": 0.0}, "dilations": {"list": {"i": ["1", "1", "1", "1"]}}, "data_format": {"s": "TkhXQw=="}, "strides": {"list": {"i": ["1", "2", "2", "1"]}}, "num_args": {"i": "1"}, "T": {"type": "DT_FLOAT"}, "explicit_paddings": {"list": {}}}}, {"name": "StatefulPartitionedCall/functional_1/sequential_3/leaky_re_lu_2/LeakyRelu", "op": "LeakyRelu", "input": ["StatefulPartitionedCall/functional_1/sequential_3/batch_normalization_2/FusedBatchNormV3"], "attr": {"alpha": {"f": 0.3}, "T": {"type": "DT_FLOAT"}}}, {"name": "StatefulPartitionedCall/functional_1/sequential_4/batch_normalization_3/FusedBatchNormV3", "op": "_FusedConv2D", "input": ["StatefulPartitionedCall/functional_1/sequential_3/leaky_re_lu_2/LeakyRelu", "StatefulPartitionedCall/functional_1/sequential_4/conv2d_3/Conv2D_weights", "StatefulPartitionedCall/functional_1/sequential_4/conv2d_3/Conv2D_bn_offset"], "device": "/device:CPU:0", "attr": {"use_cudnn_on_gpu": {"b": true}, "num_args": {"i": "1"}, "epsilon": {"f": 0.0}, "fused_ops": {"list": {"s": ["Qmlhc0FkZA=="]}}, "explicit_paddings": {"list": {}}, "strides": {"list": {"i": ["1", "2", "2", "1"]}}, "dilations": {"list": {"i": ["1", "1", "1", "1"]}}, "padding": {"s": "U0FNRQ=="}, "T": {"type": "DT_FLOAT"}, "data_format": {"s": "TkhXQw=="}}}, {"name": "StatefulPartitionedCall/functional_1/sequential_4/leaky_re_lu_3/LeakyRelu", "op": "LeakyRelu", "input": ["StatefulPartitionedCall/functional_1/sequential_4/batch_normalization_3/FusedBatchNormV3"], "attr": {"T": {"type": "DT_FLOAT"}, "alpha": {"f": 0.3}}}, {"name": "StatefulPartitionedCall/functional_1/sequential_5/batch_normalization_4/FusedBatchNormV3", "op": "_FusedConv2D", "input": ["StatefulPartitionedCall/functional_1/sequential_4/leaky_re_lu_3/LeakyRelu", "StatefulPartitionedCall/functional_1/sequential_5/conv2d_4/Conv2D_weights", "StatefulPartitionedCall/functional_1/sequential_5/conv2d_4/Conv2D_bn_offset"], "device": "/device:CPU:0", "attr": {"num_args": {"i": "1"}, "epsilon": {"f": 0.0}, "T": {"type": "DT_FLOAT"}, "data_format": {"s": "TkhXQw=="}, "padding": {"s": "U0FNRQ=="}, "dilations": {"list": {"i": ["1", "1", "1", "1"]}}, "strides": {"list": {"i": ["1", "2", "2", "1"]}}, "fused_ops": {"list": {"s": ["Qmlhc0FkZA=="]}}, "explicit_paddings": {"list": {}}, "use_cudnn_on_gpu": {"b": true}}}, {"name": "StatefulPartitionedCall/functional_1/sequential_5/leaky_re_lu_4/LeakyRelu", "op": "LeakyRelu", "input": ["StatefulPartitionedCall/functional_1/sequential_5/batch_normalization_4/FusedBatchNormV3"], "attr": {"T": {"type": "DT_FLOAT"}, "alpha": {"f": 0.3}}}, {"name": "StatefulPartitionedCall/functional_1/sequential_6/batch_normalization_5/FusedBatchNormV3", "op": "_FusedConv2D", "input": ["StatefulPartitionedCall/functional_1/sequential_5/leaky_re_lu_4/LeakyRelu", "StatefulPartitionedCall/functional_1/sequential_6/conv2d_5/Conv2D_weights", "StatefulPartitionedCall/functional_1/sequential_6/conv2d_5/Conv2D_bn_offset"], "device": "/device:CPU:0", "attr": {"T": {"type": "DT_FLOAT"}, "data_format": {"s": "TkhXQw=="}, "explicit_paddings": {"list": {}}, "num_args": {"i": "1"}, "strides": {"list": {"i": ["1", "2", "2", "1"]}}, "epsilon": {"f": 0.0}, "fused_ops": {"list": {"s": ["Qmlhc0FkZA=="]}}, "padding": {"s": "U0FNRQ=="}, "dilations": {"list": {"i": ["1", "1", "1", "1"]}}, "use_cudnn_on_gpu": {"b": true}}}, {"name": "StatefulPartitionedCall/functional_1/sequential_6/leaky_re_lu_5/LeakyRelu", "op": "LeakyRelu", "input": ["StatefulPartitionedCall/functional_1/sequential_6/batch_normalization_5/FusedBatchNormV3"], "attr": {"T": {"type": "DT_FLOAT"}, "alpha": {"f": 0.3}}}, {"name": "StatefulPartitionedCall/functional_1/sequential_7/batch_normalization_6/FusedBatchNormV3", "op": "_FusedConv2D", "input": ["StatefulPartitionedCall/functional_1/sequential_6/leaky_re_lu_5/LeakyRelu", "StatefulPartitionedCall/functional_1/sequential_7/conv2d_6/Conv2D_weights", "StatefulPartitionedCall/functional_1/sequential_7/conv2d_6/Conv2D_bn_offset"], "device": "/device:CPU:0", "attr": {"padding": {"s": "U0FNRQ=="}, "strides": {"list": {"i": ["1", "2", "2", "1"]}}, "use_cudnn_on_gpu": {"b": true}, "explicit_paddings": {"list": {}}, "fused_ops": {"list": {"s": ["Qmlhc0FkZA=="]}}, "epsilon": {"f": 0.0}, "T": {"type": "DT_FLOAT"}, "data_format": {"s": "TkhXQw=="}, "num_args": {"i": "1"}, "dilations": {"list": {"i": ["1", "1", "1", "1"]}}}}, {"name": "StatefulPartitionedCall/functional_1/sequential_7/leaky_re_lu_6/LeakyRelu", "op": "LeakyRelu", "input": ["StatefulPartitionedCall/functional_1/sequential_7/batch_normalization_6/FusedBatchNormV3"], "attr": {"alpha": {"f": 0.3}, "T": {"type": "DT_FLOAT"}}}, {"name": "StatefulPartitionedCall/functional_1/sequential_8/batch_normalization_7/FusedBatchNormV3", "op": "_FusedConv2D", "input": ["StatefulPartitionedCall/functional_1/sequential_7/leaky_re_lu_6/LeakyRelu", "StatefulPartitionedCall/functional_1/sequential_8/conv2d_7/Conv2D_weights", "StatefulPartitionedCall/functional_1/sequential_8/conv2d_7/Conv2D_bn_offset"], "device": "/device:CPU:0", "attr": {"epsilon": {"f": 0.0}, "explicit_paddings": {"list": {}}, "padding": {"s": "U0FNRQ=="}, "use_cudnn_on_gpu": {"b": true}, "strides": {"list": {"i": ["1", "2", "2", "1"]}}, "fused_ops": {"list": {"s": ["Qmlhc0FkZA=="]}}, "data_format": {"s": "TkhXQw=="}, "dilations": {"list": {"i": ["1", "1", "1", "1"]}}, "T": {"type": "DT_FLOAT"}, "num_args": {"i": "1"}}}, {"name": "StatefulPartitionedCall/functional_1/sequential_8/leaky_re_lu_7/LeakyRelu", "op": "LeakyRelu", "input": ["StatefulPartitionedCall/functional_1/sequential_8/batch_normalization_7/FusedBatchNormV3"], "attr": {"alpha": {"f": 0.3}, "T": {"type": "DT_FLOAT"}}}, {"name": "StatefulPartitionedCall/functional_1/sequential_9/batch_normalization_8/FusedBatchNormV3", "op": "_FusedConv2D", "input": ["StatefulPartitionedCall/functional_1/sequential_8/leaky_re_lu_7/LeakyRelu", "StatefulPartitionedCall/functional_1/sequential_9/conv2d_8/Conv2D_weights", "StatefulPartitionedCall/functional_1/sequential_9/conv2d_8/Conv2D_bn_offset"], "device": "/device:CPU:0", "attr": {"num_args": {"i": "1"}, "explicit_paddings": {"list": {}}, "epsilon": {"f": 0.0}, "use_cudnn_on_gpu": {"b": true}, "padding": {"s": "U0FNRQ=="}, "fused_ops": {"list": {"s": ["Qmlhc0FkZA=="]}}, "strides": {"list": {"i": ["1", "2", "2", "1"]}}, "T": {"type": "DT_FLOAT"}, "dilations": {"list": {"i": ["1", "1", "1", "1"]}}, "data_format": {"s": "TkhXQw=="}}}, {"name": "StatefulPartitionedCall/functional_1/sequential_9/leaky_re_lu_8/LeakyRelu", "op": "LeakyRelu", "input": ["StatefulPartitionedCall/functional_1/sequential_9/batch_normalization_8/FusedBatchNormV3"], "attr": {"alpha": {"f": 0.3}, "T": {"type": "DT_FLOAT"}}}, {"name": "StatefulPartitionedCall/functional_1/sequential_10/conv2d_transpose_1/Shape", "op": "Shape", "input": ["StatefulPartitionedCall/functional_1/sequential_9/leaky_re_lu_8/LeakyRelu"], "attr": {"T": {"type": "DT_FLOAT"}, "out_type": {"type": "DT_INT32"}}}, {"name": "StatefulPartitionedCall/functional_1/sequential_10/conv2d_transpose_1/strided_slice", "op": "StridedSlice", "input": ["StatefulPartitionedCall/functional_1/sequential_10/conv2d_transpose_1/Shape", "StatefulPartitionedCall/functional_1/sequential_10/conv2d_transpose_1/strided_slice/stack", "StatefulPartitionedCall/functional_1/sequential_10/conv2d_transpose_1/strided_slice/stack_1", "StatefulPartitionedCall/functional_1/sequential_10/conv2d_transpose_1/strided_slice/stack_2"], "attr": {"new_axis_mask": {"i": "0"}, "Index": {"type": "DT_INT32"}, "shrink_axis_mask": {"i": "1"}, "end_mask": {"i": "0"}, "ellipsis_mask": {"i": "0"}, "T": {"type": "DT_INT32"}, "begin_mask": {"i": "0"}}}, {"name": "StatefulPartitionedCall/functional_1/sequential_10/conv2d_transpose_1/stack", "op": "Pack", "input": ["StatefulPartitionedCall/functional_1/sequential_10/conv2d_transpose_1/strided_slice", "StatefulPartitionedCall/functional_1/sequential_10/conv2d_transpose_1/stack/1", "StatefulPartitionedCall/functional_1/sequential_10/conv2d_transpose_1/stack/2", "StatefulPartitionedCall/functional_1/sequential_10/conv2d_transpose_1/stack/3"], "attr": {"T": {"type": "DT_INT32"}, "axis": {"i": "0"}, "N": {"i": "4"}}}, {"name": "StatefulPartitionedCall/functional_1/sequential_10/conv2d_transpose_1/conv2d_transpose", "op": "Conv2DBackpropInput", "input": ["StatefulPartitionedCall/functional_1/sequential_10/conv2d_transpose_1/stack", "unknown_35", "StatefulPartitionedCall/functional_1/sequential_9/leaky_re_lu_8/LeakyRelu"], "attr": {"padding": {"s": "U0FNRQ=="}, "use_cudnn_on_gpu": {"b": true}, "data_format": {"s": "TkhXQw=="}, "explicit_paddings": {"list": {}}, "T": {"type": "DT_FLOAT"}, "strides": {"list": {"i": ["1", "2", "2", "1"]}}, "dilations": {"list": {"i": ["1", "1", "1", "1"]}}}}, {"name": "StatefulPartitionedCall/functional_1/sequential_10/batch_normalization_9/FusedBatchNormV3/Mul", "op": "Mul", "input": ["StatefulPartitionedCall/functional_1/sequential_10/conv2d_transpose_1/conv2d_transpose", "StatefulPartitionedCall/functional_1/sequential_10/batch_normalization_9/FusedBatchNormV3/Scaled"], "attr": {"T": {"type": "DT_FLOAT"}}}, {"name": "StatefulPartitionedCall/functional_1/sequential_10/batch_normalization_9/FusedBatchNormV3", "op": "Add", "input": ["StatefulPartitionedCall/functional_1/sequential_10/batch_normalization_9/FusedBatchNormV3/Mul", "StatefulPartitionedCall/functional_1/sequential_10/batch_normalization_9/FusedBatchNormV3/Offset"], "attr": {"T": {"type": "DT_FLOAT"}}}, {"name": "StatefulPartitionedCall/functional_1/sequential_10/re_lu_1/Relu", "op": "Relu", "input": ["StatefulPartitionedCall/functional_1/sequential_10/batch_normalization_9/FusedBatchNormV3"], "attr": {"T": {"type": "DT_FLOAT"}}}, {"name": "StatefulPartitionedCall/functional_1/concatenate/concat", "op": "ConcatV2", "input": ["StatefulPartitionedCall/functional_1/sequential_10/re_lu_1/Relu", "StatefulPartitionedCall/functional_1/sequential_8/leaky_re_lu_7/LeakyRelu", "StatefulPartitionedCall/functional_1/concatenate/concat/axis"], "attr": {"T": {"type": "DT_FLOAT"}, "Tidx": {"type": "DT_INT32"}, "N": {"i": "2"}}}, {"name": "StatefulPartitionedCall/functional_1/sequential_11/conv2d_transpose_2/Shape", "op": "Shape", "input": ["StatefulPartitionedCall/functional_1/concatenate/concat"], "attr": {"out_type": {"type": "DT_INT32"}, "T": {"type": "DT_FLOAT"}}}, {"name": "StatefulPartitionedCall/functional_1/sequential_11/conv2d_transpose_2/strided_slice", "op": "StridedSlice", "input": ["StatefulPartitionedCall/functional_1/sequential_11/conv2d_transpose_2/Shape", "StatefulPartitionedCall/functional_1/sequential_11/conv2d_transpose_2/strided_slice/stack", "StatefulPartitionedCall/functional_1/sequential_11/conv2d_transpose_2/strided_slice/stack_1", "StatefulPartitionedCall/functional_1/sequential_11/conv2d_transpose_2/strided_slice/stack_2"], "attr": {"T": {"type": "DT_INT32"}, "new_axis_mask": {"i": "0"}, "shrink_axis_mask": {"i": "1"}, "end_mask": {"i": "0"}, "Index": {"type": "DT_INT32"}, "begin_mask": {"i": "0"}, "ellipsis_mask": {"i": "0"}}}, {"name": "StatefulPartitionedCall/functional_1/sequential_11/conv2d_transpose_2/stack", "op": "Pack", "input": ["StatefulPartitionedCall/functional_1/sequential_11/conv2d_transpose_2/strided_slice", "StatefulPartitionedCall/functional_1/sequential_11/conv2d_transpose_2/stack/1", "StatefulPartitionedCall/functional_1/sequential_11/conv2d_transpose_2/stack/2", "StatefulPartitionedCall/functional_1/sequential_11/conv2d_transpose_2/stack/3"], "attr": {"axis": {"i": "0"}, "N": {"i": "4"}, "T": {"type": "DT_INT32"}}}, {"name": "StatefulPartitionedCall/functional_1/sequential_11/conv2d_transpose_2/conv2d_transpose", "op": "Conv2DBackpropInput", "input": ["StatefulPartitionedCall/functional_1/sequential_11/conv2d_transpose_2/stack", "unknown_40", "StatefulPartitionedCall/functional_1/concatenate/concat"], "attr": {"explicit_paddings": {"list": {}}, "dilations": {"list": {"i": ["1", "1", "1", "1"]}}, "padding": {"s": "U0FNRQ=="}, "strides": {"list": {"i": ["1", "2", "2", "1"]}}, "T": {"type": "DT_FLOAT"}, "use_cudnn_on_gpu": {"b": true}, "data_format": {"s": "TkhXQw=="}}}, {"name": "StatefulPartitionedCall/functional_1/sequential_11/batch_normalization_10/FusedBatchNormV3/Mul", "op": "Mul", "input": ["StatefulPartitionedCall/functional_1/sequential_11/conv2d_transpose_2/conv2d_transpose", "StatefulPartitionedCall/functional_1/sequential_11/batch_normalization_10/FusedBatchNormV3/Scaled"], "attr": {"T": {"type": "DT_FLOAT"}}}, {"name": "StatefulPartitionedCall/functional_1/sequential_11/batch_normalization_10/FusedBatchNormV3", "op": "Add", "input": ["StatefulPartitionedCall/functional_1/sequential_11/batch_normalization_10/FusedBatchNormV3/Mul", "StatefulPartitionedCall/functional_1/sequential_11/batch_normalization_10/FusedBatchNormV3/Offset"], "attr": {"T": {"type": "DT_FLOAT"}}}, {"name": "StatefulPartitionedCall/functional_1/sequential_11/re_lu_2/Relu", "op": "Relu", "input": ["StatefulPartitionedCall/functional_1/sequential_11/batch_normalization_10/FusedBatchNormV3"], "attr": {"T": {"type": "DT_FLOAT"}}}, {"name": "StatefulPartitionedCall/functional_1/concatenate_1/concat", "op": "ConcatV2", "input": ["StatefulPartitionedCall/functional_1/sequential_11/re_lu_2/Relu", "StatefulPartitionedCall/functional_1/sequential_7/leaky_re_lu_6/LeakyRelu", "StatefulPartitionedCall/functional_1/concatenate_1/concat/axis"], "attr": {"Tidx": {"type": "DT_INT32"}, "N": {"i": "2"}, "T": {"type": "DT_FLOAT"}}}, {"name": "StatefulPartitionedCall/functional_1/sequential_12/conv2d_transpose_3/Shape", "op": "Shape", "input": ["StatefulPartitionedCall/functional_1/concatenate_1/concat"], "attr": {"out_type": {"type": "DT_INT32"}, "T": {"type": "DT_FLOAT"}}}, {"name": "StatefulPartitionedCall/functional_1/sequential_12/conv2d_transpose_3/strided_slice", "op": "StridedSlice", "input": ["StatefulPartitionedCall/functional_1/sequential_12/conv2d_transpose_3/Shape", "StatefulPartitionedCall/functional_1/sequential_12/conv2d_transpose_3/strided_slice/stack", "StatefulPartitionedCall/functional_1/sequential_12/conv2d_transpose_3/strided_slice/stack_1", "StatefulPartitionedCall/functional_1/sequential_12/conv2d_transpose_3/strided_slice/stack_2"], "attr": {"new_axis_mask": {"i": "0"}, "T": {"type": "DT_INT32"}, "Index": {"type": "DT_INT32"}, "begin_mask": {"i": "0"}, "end_mask": {"i": "0"}, "shrink_axis_mask": {"i": "1"}, "ellipsis_mask": {"i": "0"}}}, {"name": "StatefulPartitionedCall/functional_1/sequential_12/conv2d_transpose_3/stack", "op": "Pack", "input": ["StatefulPartitionedCall/functional_1/sequential_12/conv2d_transpose_3/strided_slice", "StatefulPartitionedCall/functional_1/sequential_12/conv2d_transpose_3/stack/1", "StatefulPartitionedCall/functional_1/sequential_12/conv2d_transpose_3/stack/2", "StatefulPartitionedCall/functional_1/sequential_12/conv2d_transpose_3/stack/3"], "attr": {"T": {"type": "DT_INT32"}, "axis": {"i": "0"}, "N": {"i": "4"}}}, {"name": "StatefulPartitionedCall/functional_1/sequential_12/conv2d_transpose_3/conv2d_transpose", "op": "Conv2DBackpropInput", "input": ["StatefulPartitionedCall/functional_1/sequential_12/conv2d_transpose_3/stack", "unknown_45", "StatefulPartitionedCall/functional_1/concatenate_1/concat"], "attr": {"explicit_paddings": {"list": {}}, "padding": {"s": "U0FNRQ=="}, "use_cudnn_on_gpu": {"b": true}, "dilations": {"list": {"i": ["1", "1", "1", "1"]}}, "T": {"type": "DT_FLOAT"}, "strides": {"list": {"i": ["1", "2", "2", "1"]}}, "data_format": {"s": "TkhXQw=="}}}, {"name": "StatefulPartitionedCall/functional_1/sequential_12/batch_normalization_11/FusedBatchNormV3/Mul", "op": "Mul", "input": ["StatefulPartitionedCall/functional_1/sequential_12/conv2d_transpose_3/conv2d_transpose", "StatefulPartitionedCall/functional_1/sequential_12/batch_normalization_11/FusedBatchNormV3/Scaled"], "attr": {"T": {"type": "DT_FLOAT"}}}, {"name": "StatefulPartitionedCall/functional_1/sequential_12/batch_normalization_11/FusedBatchNormV3", "op": "Add", "input": ["StatefulPartitionedCall/functional_1/sequential_12/batch_normalization_11/FusedBatchNormV3/Mul", "StatefulPartitionedCall/functional_1/sequential_12/batch_normalization_11/FusedBatchNormV3/Offset"], "attr": {"T": {"type": "DT_FLOAT"}}}, {"name": "StatefulPartitionedCall/functional_1/sequential_12/re_lu_3/Relu", "op": "Relu", "input": ["StatefulPartitionedCall/functional_1/sequential_12/batch_normalization_11/FusedBatchNormV3"], "attr": {"T": {"type": "DT_FLOAT"}}}, {"name": "StatefulPartitionedCall/functional_1/concatenate_2/concat", "op": "ConcatV2", "input": ["StatefulPartitionedCall/functional_1/sequential_12/re_lu_3/Relu", "StatefulPartitionedCall/functional_1/sequential_6/leaky_re_lu_5/LeakyRelu", "StatefulPartitionedCall/functional_1/concatenate_2/concat/axis"], "attr": {"Tidx": {"type": "DT_INT32"}, "N": {"i": "2"}, "T": {"type": "DT_FLOAT"}}}, {"name": "StatefulPartitionedCall/functional_1/sequential_13/conv2d_transpose_4/Shape", "op": "Shape", "input": ["StatefulPartitionedCall/functional_1/concatenate_2/concat"], "attr": {"T": {"type": "DT_FLOAT"}, "out_type": {"type": "DT_INT32"}}}, {"name": "StatefulPartitionedCall/functional_1/sequential_13/conv2d_transpose_4/strided_slice", "op": "StridedSlice", "input": ["StatefulPartitionedCall/functional_1/sequential_13/conv2d_transpose_4/Shape", "StatefulPartitionedCall/functional_1/sequential_13/conv2d_transpose_4/strided_slice/stack", "StatefulPartitionedCall/functional_1/sequential_13/conv2d_transpose_4/strided_slice/stack_1", "StatefulPartitionedCall/functional_1/sequential_13/conv2d_transpose_4/strided_slice/stack_2"], "attr": {"shrink_axis_mask": {"i": "1"}, "T": {"type": "DT_INT32"}, "Index": {"type": "DT_INT32"}, "end_mask": {"i": "0"}, "new_axis_mask": {"i": "0"}, "ellipsis_mask": {"i": "0"}, "begin_mask": {"i": "0"}}}, {"name": "StatefulPartitionedCall/functional_1/sequential_13/conv2d_transpose_4/stack", "op": "Pack", "input": ["StatefulPartitionedCall/functional_1/sequential_13/conv2d_transpose_4/strided_slice", "StatefulPartitionedCall/functional_1/sequential_13/conv2d_transpose_4/stack/1", "StatefulPartitionedCall/functional_1/sequential_13/conv2d_transpose_4/stack/2", "StatefulPartitionedCall/functional_1/sequential_13/conv2d_transpose_4/stack/3"], "attr": {"T": {"type": "DT_INT32"}, "axis": {"i": "0"}, "N": {"i": "4"}}}, {"name": "StatefulPartitionedCall/functional_1/sequential_13/conv2d_transpose_4/conv2d_transpose", "op": "Conv2DBackpropInput", "input": ["StatefulPartitionedCall/functional_1/sequential_13/conv2d_transpose_4/stack", "unknown_50", "StatefulPartitionedCall/functional_1/concatenate_2/concat"], "attr": {"use_cudnn_on_gpu": {"b": true}, "data_format": {"s": "TkhXQw=="}, "dilations": {"list": {"i": ["1", "1", "1", "1"]}}, "T": {"type": "DT_FLOAT"}, "padding": {"s": "U0FNRQ=="}, "strides": {"list": {"i": ["1", "2", "2", "1"]}}, "explicit_paddings": {"list": {}}}}, {"name": "StatefulPartitionedCall/functional_1/sequential_13/batch_normalization_12/FusedBatchNormV3/Mul", "op": "Mul", "input": ["StatefulPartitionedCall/functional_1/sequential_13/conv2d_transpose_4/conv2d_transpose", "StatefulPartitionedCall/functional_1/sequential_13/batch_normalization_12/FusedBatchNormV3/Scaled"], "attr": {"T": {"type": "DT_FLOAT"}}}, {"name": "StatefulPartitionedCall/functional_1/sequential_13/batch_normalization_12/FusedBatchNormV3", "op": "Add", "input": ["StatefulPartitionedCall/functional_1/sequential_13/batch_normalization_12/FusedBatchNormV3/Mul", "StatefulPartitionedCall/functional_1/sequential_13/batch_normalization_12/FusedBatchNormV3/Offset"], "attr": {"T": {"type": "DT_FLOAT"}}}, {"name": "StatefulPartitionedCall/functional_1/sequential_13/re_lu_4/Relu", "op": "Relu", "input": ["StatefulPartitionedCall/functional_1/sequential_13/batch_normalization_12/FusedBatchNormV3"], "attr": {"T": {"type": "DT_FLOAT"}}}, {"name": "StatefulPartitionedCall/functional_1/concatenate_3/concat", "op": "ConcatV2", "input": ["StatefulPartitionedCall/functional_1/sequential_13/re_lu_4/Relu", "StatefulPartitionedCall/functional_1/sequential_5/leaky_re_lu_4/LeakyRelu", "StatefulPartitionedCall/functional_1/concatenate_3/concat/axis"], "attr": {"Tidx": {"type": "DT_INT32"}, "N": {"i": "2"}, "T": {"type": "DT_FLOAT"}}}, {"name": "StatefulPartitionedCall/functional_1/sequential_14/conv2d_transpose_5/Shape", "op": "Shape", "input": ["StatefulPartitionedCall/functional_1/concatenate_3/concat"], "attr": {"out_type": {"type": "DT_INT32"}, "T": {"type": "DT_FLOAT"}}}, {"name": "StatefulPartitionedCall/functional_1/sequential_14/conv2d_transpose_5/strided_slice", "op": "StridedSlice", "input": ["StatefulPartitionedCall/functional_1/sequential_14/conv2d_transpose_5/Shape", "StatefulPartitionedCall/functional_1/sequential_14/conv2d_transpose_5/strided_slice/stack", "StatefulPartitionedCall/functional_1/sequential_14/conv2d_transpose_5/strided_slice/stack_1", "StatefulPartitionedCall/functional_1/sequential_14/conv2d_transpose_5/strided_slice/stack_2"], "attr": {"shrink_axis_mask": {"i": "1"}, "end_mask": {"i": "0"}, "ellipsis_mask": {"i": "0"}, "new_axis_mask": {"i": "0"}, "begin_mask": {"i": "0"}, "Index": {"type": "DT_INT32"}, "T": {"type": "DT_INT32"}}}, {"name": "StatefulPartitionedCall/functional_1/sequential_14/conv2d_transpose_5/stack", "op": "Pack", "input": ["StatefulPartitionedCall/functional_1/sequential_14/conv2d_transpose_5/strided_slice", "StatefulPartitionedCall/functional_1/sequential_14/conv2d_transpose_5/stack/1", "StatefulPartitionedCall/functional_1/sequential_14/conv2d_transpose_5/stack/2", "StatefulPartitionedCall/functional_1/sequential_14/conv2d_transpose_5/stack/3"], "attr": {"T": {"type": "DT_INT32"}, "axis": {"i": "0"}, "N": {"i": "4"}}}, {"name": "StatefulPartitionedCall/functional_1/sequential_14/conv2d_transpose_5/conv2d_transpose", "op": "Conv2DBackpropInput", "input": ["StatefulPartitionedCall/functional_1/sequential_14/conv2d_transpose_5/stack", "unknown_55", "StatefulPartitionedCall/functional_1/concatenate_3/concat"], "attr": {"dilations": {"list": {"i": ["1", "1", "1", "1"]}}, "padding": {"s": "U0FNRQ=="}, "use_cudnn_on_gpu": {"b": true}, "explicit_paddings": {"list": {}}, "data_format": {"s": "TkhXQw=="}, "strides": {"list": {"i": ["1", "2", "2", "1"]}}, "T": {"type": "DT_FLOAT"}}}, {"name": "StatefulPartitionedCall/functional_1/sequential_14/batch_normalization_13/FusedBatchNormV3/Mul", "op": "Mul", "input": ["StatefulPartitionedCall/functional_1/sequential_14/conv2d_transpose_5/conv2d_transpose", "StatefulPartitionedCall/functional_1/sequential_14/batch_normalization_13/FusedBatchNormV3/Scaled"], "attr": {"T": {"type": "DT_FLOAT"}}}, {"name": "StatefulPartitionedCall/functional_1/sequential_14/batch_normalization_13/FusedBatchNormV3", "op": "Add", "input": ["StatefulPartitionedCall/functional_1/sequential_14/batch_normalization_13/FusedBatchNormV3/Mul", "StatefulPartitionedCall/functional_1/sequential_14/batch_normalization_13/FusedBatchNormV3/Offset"], "attr": {"T": {"type": "DT_FLOAT"}}}, {"name": "StatefulPartitionedCall/functional_1/sequential_14/re_lu_5/Relu", "op": "Relu", "input": ["StatefulPartitionedCall/functional_1/sequential_14/batch_normalization_13/FusedBatchNormV3"], "attr": {"T": {"type": "DT_FLOAT"}}}, {"name": "StatefulPartitionedCall/functional_1/concatenate_4/concat", "op": "ConcatV2", "input": ["StatefulPartitionedCall/functional_1/sequential_14/re_lu_5/Relu", "StatefulPartitionedCall/functional_1/sequential_4/leaky_re_lu_3/LeakyRelu", "StatefulPartitionedCall/functional_1/concatenate_4/concat/axis"], "attr": {"T": {"type": "DT_FLOAT"}, "N": {"i": "2"}, "Tidx": {"type": "DT_INT32"}}}, {"name": "StatefulPartitionedCall/functional_1/sequential_15/conv2d_transpose_6/Shape", "op": "Shape", "input": ["StatefulPartitionedCall/functional_1/concatenate_4/concat"], "attr": {"T": {"type": "DT_FLOAT"}, "out_type": {"type": "DT_INT32"}}}, {"name": "StatefulPartitionedCall/functional_1/sequential_15/conv2d_transpose_6/strided_slice", "op": "StridedSlice", "input": ["StatefulPartitionedCall/functional_1/sequential_15/conv2d_transpose_6/Shape", "StatefulPartitionedCall/functional_1/sequential_15/conv2d_transpose_6/strided_slice/stack", "StatefulPartitionedCall/functional_1/sequential_15/conv2d_transpose_6/strided_slice/stack_1", "StatefulPartitionedCall/functional_1/sequential_15/conv2d_transpose_6/strided_slice/stack_2"], "attr": {"shrink_axis_mask": {"i": "1"}, "end_mask": {"i": "0"}, "ellipsis_mask": {"i": "0"}, "begin_mask": {"i": "0"}, "T": {"type": "DT_INT32"}, "new_axis_mask": {"i": "0"}, "Index": {"type": "DT_INT32"}}}, {"name": "StatefulPartitionedCall/functional_1/sequential_15/conv2d_transpose_6/stack", "op": "Pack", "input": ["StatefulPartitionedCall/functional_1/sequential_15/conv2d_transpose_6/strided_slice", "StatefulPartitionedCall/functional_1/sequential_15/conv2d_transpose_6/stack/1", "StatefulPartitionedCall/functional_1/sequential_15/conv2d_transpose_6/stack/2", "StatefulPartitionedCall/functional_1/sequential_15/conv2d_transpose_6/stack/3"], "attr": {"axis": {"i": "0"}, "N": {"i": "4"}, "T": {"type": "DT_INT32"}}}, {"name": "StatefulPartitionedCall/functional_1/sequential_15/conv2d_transpose_6/conv2d_transpose", "op": "Conv2DBackpropInput", "input": ["StatefulPartitionedCall/functional_1/sequential_15/conv2d_transpose_6/stack", "unknown_60", "StatefulPartitionedCall/functional_1/concatenate_4/concat"], "attr": {"data_format": {"s": "TkhXQw=="}, "strides": {"list": {"i": ["1", "2", "2", "1"]}}, "T": {"type": "DT_FLOAT"}, "use_cudnn_on_gpu": {"b": true}, "padding": {"s": "U0FNRQ=="}, "explicit_paddings": {"list": {}}, "dilations": {"list": {"i": ["1", "1", "1", "1"]}}}}, {"name": "StatefulPartitionedCall/functional_1/sequential_15/batch_normalization_14/FusedBatchNormV3/Mul", "op": "Mul", "input": ["StatefulPartitionedCall/functional_1/sequential_15/conv2d_transpose_6/conv2d_transpose", "StatefulPartitionedCall/functional_1/sequential_15/batch_normalization_14/FusedBatchNormV3/Scaled"], "attr": {"T": {"type": "DT_FLOAT"}}}, {"name": "StatefulPartitionedCall/functional_1/sequential_15/batch_normalization_14/FusedBatchNormV3", "op": "Add", "input": ["StatefulPartitionedCall/functional_1/sequential_15/batch_normalization_14/FusedBatchNormV3/Mul", "StatefulPartitionedCall/functional_1/sequential_15/batch_normalization_14/FusedBatchNormV3/Offset"], "attr": {"T": {"type": "DT_FLOAT"}}}, {"name": "StatefulPartitionedCall/functional_1/sequential_15/re_lu_6/Relu", "op": "Relu", "input": ["StatefulPartitionedCall/functional_1/sequential_15/batch_normalization_14/FusedBatchNormV3"], "attr": {"T": {"type": "DT_FLOAT"}}}, {"name": "StatefulPartitionedCall/functional_1/concatenate_5/concat", "op": "ConcatV2", "input": ["StatefulPartitionedCall/functional_1/sequential_15/re_lu_6/Relu", "StatefulPartitionedCall/functional_1/sequential_3/leaky_re_lu_2/LeakyRelu", "StatefulPartitionedCall/functional_1/concatenate_5/concat/axis"], "attr": {"Tidx": {"type": "DT_INT32"}, "N": {"i": "2"}, "T": {"type": "DT_FLOAT"}}}, {"name": "StatefulPartitionedCall/functional_1/sequential_16/conv2d_transpose_7/Shape", "op": "Shape", "input": ["StatefulPartitionedCall/functional_1/concatenate_5/concat"], "attr": {"out_type": {"type": "DT_INT32"}, "T": {"type": "DT_FLOAT"}}}, {"name": "StatefulPartitionedCall/functional_1/sequential_16/conv2d_transpose_7/strided_slice", "op": "StridedSlice", "input": ["StatefulPartitionedCall/functional_1/sequential_16/conv2d_transpose_7/Shape", "StatefulPartitionedCall/functional_1/sequential_16/conv2d_transpose_7/strided_slice/stack", "StatefulPartitionedCall/functional_1/sequential_16/conv2d_transpose_7/strided_slice/stack_1", "StatefulPartitionedCall/functional_1/sequential_16/conv2d_transpose_7/strided_slice/stack_2"], "attr": {"Index": {"type": "DT_INT32"}, "T": {"type": "DT_INT32"}, "new_axis_mask": {"i": "0"}, "end_mask": {"i": "0"}, "ellipsis_mask": {"i": "0"}, "begin_mask": {"i": "0"}, "shrink_axis_mask": {"i": "1"}}}, {"name": "StatefulPartitionedCall/functional_1/sequential_16/conv2d_transpose_7/stack", "op": "Pack", "input": ["StatefulPartitionedCall/functional_1/sequential_16/conv2d_transpose_7/strided_slice", "StatefulPartitionedCall/functional_1/sequential_16/conv2d_transpose_7/stack/1", "StatefulPartitionedCall/functional_1/sequential_16/conv2d_transpose_7/stack/2", "StatefulPartitionedCall/functional_1/sequential_16/conv2d_transpose_7/stack/3"], "attr": {"N": {"i": "4"}, "T": {"type": "DT_INT32"}, "axis": {"i": "0"}}}, {"name": "StatefulPartitionedCall/functional_1/sequential_16/conv2d_transpose_7/conv2d_transpose", "op": "Conv2DBackpropInput", "input": ["StatefulPartitionedCall/functional_1/sequential_16/conv2d_transpose_7/stack", "unknown_65", "StatefulPartitionedCall/functional_1/concatenate_5/concat"], "attr": {"strides": {"list": {"i": ["1", "2", "2", "1"]}}, "padding": {"s": "U0FNRQ=="}, "T": {"type": "DT_FLOAT"}, "dilations": {"list": {"i": ["1", "1", "1", "1"]}}, "use_cudnn_on_gpu": {"b": true}, "data_format": {"s": "TkhXQw=="}, "explicit_paddings": {"list": {}}}}, {"name": "StatefulPartitionedCall/functional_1/sequential_16/batch_normalization_15/FusedBatchNormV3/Mul", "op": "Mul", "input": ["StatefulPartitionedCall/functional_1/sequential_16/conv2d_transpose_7/conv2d_transpose", "StatefulPartitionedCall/functional_1/sequential_16/batch_normalization_15/FusedBatchNormV3/Scaled"], "attr": {"T": {"type": "DT_FLOAT"}}}, {"name": "StatefulPartitionedCall/functional_1/sequential_16/batch_normalization_15/FusedBatchNormV3", "op": "Add", "input": ["StatefulPartitionedCall/functional_1/sequential_16/batch_normalization_15/FusedBatchNormV3/Mul", "StatefulPartitionedCall/functional_1/sequential_16/batch_normalization_15/FusedBatchNormV3/Offset"], "attr": {"T": {"type": "DT_FLOAT"}}}, {"name": "StatefulPartitionedCall/functional_1/sequential_16/re_lu_7/Relu", "op": "Relu", "input": ["StatefulPartitionedCall/functional_1/sequential_16/batch_normalization_15/FusedBatchNormV3"], "attr": {"T": {"type": "DT_FLOAT"}}}, {"name": "StatefulPartitionedCall/functional_1/concatenate_6/concat", "op": "ConcatV2", "input": ["StatefulPartitionedCall/functional_1/sequential_16/re_lu_7/Relu", "StatefulPartitionedCall/functional_1/sequential_2/leaky_re_lu_1/LeakyRelu", "StatefulPartitionedCall/functional_1/concatenate_6/concat/axis"], "attr": {"T": {"type": "DT_FLOAT"}, "N": {"i": "2"}, "Tidx": {"type": "DT_INT32"}}}, {"name": "StatefulPartitionedCall/functional_1/conv2d_transpose_8/Shape", "op": "Shape", "input": ["StatefulPartitionedCall/functional_1/concatenate_6/concat"], "attr": {"out_type": {"type": "DT_INT32"}, "T": {"type": "DT_FLOAT"}}}, {"name": "StatefulPartitionedCall/functional_1/conv2d_transpose_8/strided_slice", "op": "StridedSlice", "input": ["StatefulPartitionedCall/functional_1/conv2d_transpose_8/Shape", "StatefulPartitionedCall/functional_1/conv2d_transpose_8/strided_slice/stack", "StatefulPartitionedCall/functional_1/conv2d_transpose_8/strided_slice/stack_1", "StatefulPartitionedCall/functional_1/conv2d_transpose_8/strided_slice/stack_2"], "attr": {"T": {"type": "DT_INT32"}, "shrink_axis_mask": {"i": "1"}, "new_axis_mask": {"i": "0"}, "Index": {"type": "DT_INT32"}, "begin_mask": {"i": "0"}, "end_mask": {"i": "0"}, "ellipsis_mask": {"i": "0"}}}, {"name": "StatefulPartitionedCall/functional_1/conv2d_transpose_8/stack", "op": "Pack", "input": ["StatefulPartitionedCall/functional_1/conv2d_transpose_8/strided_slice", "StatefulPartitionedCall/functional_1/conv2d_transpose_8/stack/1", "StatefulPartitionedCall/functional_1/conv2d_transpose_8/stack/2", "StatefulPartitionedCall/functional_1/conv2d_transpose_8/stack/3"], "attr": {"axis": {"i": "0"}, "T": {"type": "DT_INT32"}, "N": {"i": "4"}}}, {"name": "StatefulPartitionedCall/functional_1/conv2d_transpose_8/conv2d_transpose", "op": "Conv2DBackpropInput", "input": ["StatefulPartitionedCall/functional_1/conv2d_transpose_8/stack", "unknown_70", "StatefulPartitionedCall/functional_1/concatenate_6/concat"], "attr": {"padding": {"s": "U0FNRQ=="}, "use_cudnn_on_gpu": {"b": true}, "T": {"type": "DT_FLOAT"}, "data_format": {"s": "TkhXQw=="}, "strides": {"list": {"i": ["1", "2", "2", "1"]}}, "explicit_paddings": {"list": {}}, "dilations": {"list": {"i": ["1", "1", "1", "1"]}}}}, {"name": "StatefulPartitionedCall/functional_1/conv2d_transpose_8/BiasAdd", "op": "BiasAdd", "input": ["StatefulPartitionedCall/functional_1/conv2d_transpose_8/conv2d_transpose", "unknown_71"], "attr": {"T": {"type": "DT_FLOAT"}, "data_format": {"s": "TkhXQw=="}}}, {"name": "StatefulPartitionedCall/functional_1/conv2d_transpose_8/Tanh", "op": "Tanh", "input": ["StatefulPartitionedCall/functional_1/conv2d_transpose_8/BiasAdd"], "attr": {"T": {"type": "DT_FLOAT"}}}, {"name": "Identity", "op": "Identity", "input": ["StatefulPartitionedCall/functional_1/conv2d_transpose_8/Tanh"], "attr": {"T": {"type": "DT_FLOAT"}}}], "library": {}, "versions": {"producer": 440}}, "weightsManifest": [{"paths": ["group1-shard1of5.bin", "group1-shard2of5.bin", "group1-shard3of5.bin", "group1-shard4of5.bin", "group1-shard5of5.bin"], "weights": [{"name": "StatefulPartitionedCall/functional_1/conv2d_transpose_8/strided_slice/stack", "shape": [1], "dtype": "int32"}, {"name": "StatefulPartitionedCall/functional_1/conv2d_transpose_8/strided_slice/stack_1", "shape": [1], "dtype": "int32"}, {"name": "StatefulPartitionedCall/functional_1/conv2d_transpose_8/strided_slice/stack_2", "shape": [1], "dtype": "int32"}, {"name": "StatefulPartitionedCall/functional_1/conv2d_transpose_8/stack/1", "shape": [], "dtype": "int32"}, {"name": "StatefulPartitionedCall/functional_1/conv2d_transpose_8/stack/2", "shape": [], "dtype": "int32"}, {"name": "StatefulPartitionedCall/functional_1/conv2d_transpose_8/stack/3", "shape": [], "dtype": "int32"}, {"name": "unknown_70", "shape": [4, 4, 3, 16], "dtype": "float32", "quantization": {"dtype": "uint8", "min": -0.8470959495095646, "scale": 0.005882610760483087, "original_dtype": "float32"}}, {"name": "StatefulPartitionedCall/functional_1/sequential_16/conv2d_transpose_7/strided_slice/stack", "shape": [1], "dtype": "int32"}, {"name": "StatefulPartitionedCall/functional_1/sequential_16/conv2d_transpose_7/strided_slice/stack_1", "shape": [1], "dtype": "int32"}, {"name": "StatefulPartitionedCall/functional_1/sequential_16/conv2d_transpose_7/strided_slice/stack_2", "shape": [1], "dtype": "int32"}, {"name": "StatefulPartitionedCall/functional_1/sequential_16/conv2d_transpose_7/stack/1", "shape": [], "dtype": "int32"}, {"name": "StatefulPartitionedCall/functional_1/sequential_16/conv2d_transpose_7/stack/2", "shape": [], "dtype": "int32"}, {"name": "StatefulPartitionedCall/functional_1/sequential_16/conv2d_transpose_7/stack/3", "shape": [], "dtype": "int32"}, {"name": "unknown_65", "shape": [4, 4, 8, 32], "dtype": "float32", "quantization": {"dtype": "uint8", "min": -0.7425469024508607, "scale": 0.004219016491198073, "original_dtype": "float32"}}, {"name": "StatefulPartitionedCall/functional_1/sequential_15/conv2d_transpose_6/strided_slice/stack", "shape": [1], "dtype": "int32"}, {"name": "StatefulPartitionedCall/functional_1/sequential_15/conv2d_transpose_6/strided_slice/stack_1", "shape": [1], "dtype": "int32"}, {"name": "StatefulPartitionedCall/functional_1/sequential_15/conv2d_transpose_6/strided_slice/stack_2", "shape": [1], "dtype": "int32"}, {"name": "StatefulPartitionedCall/functional_1/sequential_15/conv2d_transpose_6/stack/1", "shape": [], "dtype": "int32"}, {"name": "StatefulPartitionedCall/functional_1/sequential_15/conv2d_transpose_6/stack/2", "shape": [], "dtype": "int32"}, {"name": "StatefulPartitionedCall/functional_1/sequential_15/conv2d_transpose_6/stack/3", "shape": [], "dtype": "int32"}, {"name": "unknown_60", "shape": [4, 4, 16, 64], "dtype": "float32", "quantization": {"dtype": "uint8", "min": -0.4968933514520234, "scale": 0.0037081593391942043, "original_dtype": "float32"}}, {"name": "StatefulPartitionedCall/functional_1/sequential_14/conv2d_transpose_5/strided_slice/stack", "shape": [1], "dtype": "int32"}, {"name": "StatefulPartitionedCall/functional_1/sequential_14/conv2d_transpose_5/strided_slice/stack_1", "shape": [1], "dtype": "int32"}, {"name": "StatefulPartitionedCall/functional_1/sequential_14/conv2d_transpose_5/strided_slice/stack_2", "shape": [1], "dtype": "int32"}, {"name": "StatefulPartitionedCall/functional_1/sequential_14/conv2d_transpose_5/stack/1", "shape": [], "dtype": "int32"}, {"name": "StatefulPartitionedCall/functional_1/sequential_14/conv2d_transpose_5/stack/2", "shape": [], "dtype": "int32"}, {"name": "StatefulPartitionedCall/functional_1/sequential_14/conv2d_transpose_5/stack/3", "shape": [], "dtype": "int32"}, {"name": "unknown_55", "shape": [4, 4, 32, 128], "dtype": "float32", "quantization": {"dtype": "uint8", "min": -0.3588090335621553, "scale": 0.0028031955747043385, "original_dtype": "float32"}}, {"name": "StatefulPartitionedCall/functional_1/sequential_13/conv2d_transpose_4/strided_slice/stack", "shape": [1], "dtype": "int32"}, {"name": "StatefulPartitionedCall/functional_1/sequential_13/conv2d_transpose_4/strided_slice/stack_1", "shape": [1], "dtype": "int32"}, {"name": "StatefulPartitionedCall/functional_1/sequential_13/conv2d_transpose_4/strided_slice/stack_2", "shape": [1], "dtype": "int32"}, {"name": "StatefulPartitionedCall/functional_1/sequential_13/conv2d_transpose_4/stack/1", "shape": [], "dtype": "int32"}, {"name": "StatefulPartitionedCall/functional_1/sequential_13/conv2d_transpose_4/stack/2", "shape": [], "dtype": "int32"}, {"name": "StatefulPartitionedCall/functional_1/sequential_13/conv2d_transpose_4/stack/3", "shape": [], "dtype": "int32"}, {"name": "unknown_50", "shape": [4, 4, 64, 256], "dtype": "float32", "quantization": {"dtype": "uint8", "min": -0.2895434697469076, "scale": 0.0023163477579752605, "original_dtype": "float32"}}, {"name": "StatefulPartitionedCall/functional_1/sequential_12/conv2d_transpose_3/strided_slice/stack", "shape": [1], "dtype": "int32"}, {"name": "StatefulPartitionedCall/functional_1/sequential_12/conv2d_transpose_3/strided_slice/stack_1", "shape": [1], "dtype": "int32"}, {"name": "StatefulPartitionedCall/functional_1/sequential_12/conv2d_transpose_3/strided_slice/stack_2", "shape": [1], "dtype": "int32"}, {"name": "StatefulPartitionedCall/functional_1/sequential_12/conv2d_transpose_3/stack/1", "shape": [], "dtype": "int32"}, {"name": "StatefulPartitionedCall/functional_1/sequential_12/conv2d_transpose_3/stack/2", "shape": [], "dtype": "int32"}, {"name": "StatefulPartitionedCall/functional_1/sequential_12/conv2d_transpose_3/stack/3", "shape": [], "dtype": "int32"}, {"name": "unknown_45", "shape": [4, 4, 128, 512], "dtype": "float32", "quantization": {"dtype": "uint8", "min": -0.270559478039835, "scale": 0.00216447582431868, "original_dtype": "float32"}}, {"name": "StatefulPartitionedCall/functional_1/sequential_11/conv2d_transpose_2/strided_slice/stack", "shape": [1], "dtype": "int32"}, {"name": "StatefulPartitionedCall/functional_1/sequential_11/conv2d_transpose_2/strided_slice/stack_1", "shape": [1], "dtype": "int32"}, {"name": "StatefulPartitionedCall/functional_1/sequential_11/conv2d_transpose_2/strided_slice/stack_2", "shape": [1], "dtype": "int32"}, {"name": "StatefulPartitionedCall/functional_1/sequential_11/conv2d_transpose_2/stack/1", "shape": [], "dtype": "int32"}, {"name": "StatefulPartitionedCall/functional_1/sequential_11/conv2d_transpose_2/stack/2", "shape": [], "dtype": "int32"}, {"name": "StatefulPartitionedCall/functional_1/sequential_11/conv2d_transpose_2/stack/3", "shape": [], "dtype": "int32"}, {"name": "unknown_40", "shape": [4, 4, 256, 1024], "dtype": "float32", "quantization": {"dtype": "uint8", "min": -0.24534419576327005, "scale": 0.0020110179980595906, "original_dtype": "float32"}}, {"name": "StatefulPartitionedCall/functional_1/sequential_10/conv2d_transpose_1/strided_slice/stack", "shape": [1], "dtype": "int32"}, {"name": "StatefulPartitionedCall/functional_1/sequential_10/conv2d_transpose_1/strided_slice/stack_1", "shape": [1], "dtype": "int32"}, {"name": "StatefulPartitionedCall/functional_1/sequential_10/conv2d_transpose_1/strided_slice/stack_2", "shape": [1], "dtype": "int32"}, {"name": "StatefulPartitionedCall/functional_1/sequential_10/conv2d_transpose_1/stack/1", "shape": [], "dtype": "int32"}, {"name": "StatefulPartitionedCall/functional_1/sequential_10/conv2d_transpose_1/stack/2", "shape": [], "dtype": "int32"}, {"name": "StatefulPartitionedCall/functional_1/sequential_10/conv2d_transpose_1/stack/3", "shape": [], "dtype": "int32"}, {"name": "unknown_35", "shape": [4, 4, 512, 512], "dtype": "float32", "quantization": {"dtype": "uint8", "min": -0.26586137139329724, "scale": 0.0019126717366424262, "original_dtype": "float32"}}, {"name": "StatefulPartitionedCall/functional_1/concatenate/concat/axis", "shape": [], "dtype": "int32"}, {"name": "StatefulPartitionedCall/functional_1/concatenate_1/concat/axis", "shape": [], "dtype": "int32"}, {"name": "StatefulPartitionedCall/functional_1/concatenate_2/concat/axis", "shape": [], "dtype": "int32"}, {"name": "StatefulPartitionedCall/functional_1/concatenate_3/concat/axis", "shape": [], "dtype": "int32"}, {"name": "StatefulPartitionedCall/functional_1/concatenate_4/concat/axis", "shape": [], "dtype": "int32"}, {"name": "StatefulPartitionedCall/functional_1/concatenate_5/concat/axis", "shape": [], "dtype": "int32"}, {"name": "unknown", "shape": [4, 4, 1, 8], "dtype": "float32", "quantization": {"dtype": "uint8", "min": -0.1518479027000128, "scale": 0.001286846633050956, "original_dtype": "float32"}}, {"name": "StatefulPartitionedCall/functional_1/concatenate_6/concat/axis", "shape": [], "dtype": "int32"}, {"name": "unknown_71", "shape": [3], "dtype": "float32", "quantization": {"dtype": "uint8", "min": -0.16384784754584816, "scale": 0.0022756645492478913, "original_dtype": "float32"}}, {"name": "StatefulPartitionedCall/functional_1/sequential_3/conv2d_2/Conv2D_weights", "shape": [4, 4, 8, 16], "dtype": "float32", "quantization": {"dtype": "uint8", "min": -0.6681410387450574, "scale": 0.004806770062914082, "original_dtype": "float32"}}, {"name": "StatefulPartitionedCall/functional_1/sequential_3/conv2d_2/Conv2D_bn_offset", "shape": [16], "dtype": "float32", "quantization": {"dtype": "uint8", "min": -1.531274700164795, "scale": 0.009943342208862305, "original_dtype": "float32"}}, {"name": "StatefulPartitionedCall/functional_1/sequential_4/conv2d_3/Conv2D_weights", "shape": [4, 4, 16, 32], "dtype": "float32", "quantization": {"dtype": "uint8", "min": -0.30660300336632074, "scale": 0.0026661130727506153, "original_dtype": "float32"}}, {"name": "StatefulPartitionedCall/functional_1/sequential_4/conv2d_3/Conv2D_bn_offset", "shape": [32], "dtype": "float32", "quantization": {"dtype": "uint8", "min": -0.6717690560163236, "scale": 0.0037528997542811376, "original_dtype": "float32"}}, {"name": "StatefulPartitionedCall/functional_1/sequential_5/conv2d_4/Conv2D_weights", "shape": [4, 4, 32, 64], "dtype": "float32", "quantization": {"dtype": "uint8", "min": -0.23780224048623852, "scale": 0.001872458586505815, "original_dtype": "float32"}}, {"name": "StatefulPartitionedCall/functional_1/sequential_5/conv2d_4/Conv2D_bn_offset", "shape": [64], "dtype": "float32", "quantization": {"dtype": "uint8", "min": -0.47020580049823313, "scale": 0.0022936868316986983, "original_dtype": "float32"}}, {"name": "StatefulPartitionedCall/functional_1/sequential_6/conv2d_5/Conv2D_weights", "shape": [4, 4, 64, 128], "dtype": "float32", "quantization": {"dtype": "uint8", "min": -0.21498989240795957, "scale": 0.0017199191392636766, "original_dtype": "float32"}}, {"name": "StatefulPartitionedCall/functional_1/sequential_10/batch_normalization_9/FusedBatchNormV3/Scaled", "shape": [512], "dtype": "float32", "quantization": {"dtype": "uint8", "min": 0.07042457163333893, "scale": 0.0008223624206056782, "original_dtype": "float32"}}, {"name": "StatefulPartitionedCall/functional_1/sequential_6/conv2d_5/Conv2D_bn_offset", "shape": [128], "dtype": "float32", "quantization": {"dtype": "uint8", "min": -0.42462106031530045, "scale": 0.0037247461431166706, "original_dtype": "float32"}}, {"name": "StatefulPartitionedCall/functional_1/sequential_7/conv2d_6/Conv2D_weights", "shape": [4, 4, 128, 256], "dtype": "float32", "quantization": {"dtype": "uint8", "min": -0.09947429462975148, "scale": 0.000759345760532454, "original_dtype": "float32"}}, {"name": "StatefulPartitionedCall/functional_1/sequential_7/conv2d_6/Conv2D_bn_offset", "shape": [256], "dtype": "float32", "quantization": {"dtype": "uint8", "min": -0.7696268474354464, "scale": 0.005743483936085421, "original_dtype": "float32"}}, {"name": "StatefulPartitionedCall/functional_1/sequential_8/conv2d_7/Conv2D_weights", "shape": [4, 4, 256, 512], "dtype": "float32", "quantization": {"dtype": "uint8", "min": -0.11297715604305268, "scale": 0.0008757919073104859, "original_dtype": "float32"}}, {"name": "StatefulPartitionedCall/functional_1/sequential_8/conv2d_7/Conv2D_bn_offset", "shape": [512], "dtype": "float32", "quantization": {"dtype": "uint8", "min": -0.6626686460831586, "scale": 0.005259274968913957, "original_dtype": "float32"}}, {"name": "StatefulPartitionedCall/functional_1/sequential_9/conv2d_8/Conv2D_weights", "shape": [4, 4, 512, 512], "dtype": "float32", "quantization": {"dtype": "uint8", "min": -0.04494934958570144, "scale": 0.00035674086972778917, "original_dtype": "float32"}}, {"name": "StatefulPartitionedCall/functional_1/sequential_10/batch_normalization_9/FusedBatchNormV3/Offset", "shape": [512], "dtype": "float32", "quantization": {"dtype": "uint8", "min": -0.7340118730769438, "scale": 0.006220439602346982, "original_dtype": "float32"}}, {"name": "StatefulPartitionedCall/functional_1/sequential_9/conv2d_8/Conv2D_bn_offset", "shape": [512], "dtype": "float32", "quantization": {"dtype": "uint8", "min": -0.9117570928498809, "scale": 0.008601482008017745, "original_dtype": "float32"}}, {"name": "StatefulPartitionedCall/functional_1/sequential_16/batch_normalization_15/FusedBatchNormV3/Scaled", "shape": [8], "dtype": "float32", "quantization": {"dtype": "uint8", "min": 2.4224941730499268, "scale": 0.008589046141680549, "original_dtype": "float32"}}, {"name": "StatefulPartitionedCall/functional_1/sequential_16/batch_normalization_15/FusedBatchNormV3/Offset", "shape": [8], "dtype": "float32", "quantization": {"dtype": "uint8", "min": 0.07396306097507477, "scale": 0.0035422287150925283, "original_dtype": "float32"}}, {"name": "StatefulPartitionedCall/functional_1/sequential_15/batch_normalization_14/FusedBatchNormV3/Scaled", "shape": [16], "dtype": "float32", "quantization": {"dtype": "uint8", "min": 0.8860949277877808, "scale": 0.00519561720829384, "original_dtype": "float32"}}, {"name": "StatefulPartitionedCall/functional_1/sequential_15/batch_normalization_14/FusedBatchNormV3/Offset", "shape": [16], "dtype": "float32", "quantization": {"dtype": "uint8", "min": -0.3851222495237986, "scale": 0.003080977996190389, "original_dtype": "float32"}}, {"name": "StatefulPartitionedCall/functional_1/sequential_14/batch_normalization_13/FusedBatchNormV3/Scaled", "shape": [32], "dtype": "float32", "quantization": {"dtype": "uint8", "min": 0.7334257364273071, "scale": 0.004175552199868595, "original_dtype": "float32"}}, {"name": "StatefulPartitionedCall/functional_1/sequential_14/batch_normalization_13/FusedBatchNormV3/Offset", "shape": [32], "dtype": "float32", "quantization": {"dtype": "uint8", "min": -0.1505575367048675, "scale": 0.0037639384176216873, "original_dtype": "float32"}}, {"name": "StatefulPartitionedCall/functional_1/sequential_13/batch_normalization_12/FusedBatchNormV3/Scaled", "shape": [64], "dtype": "float32", "quantization": {"dtype": "uint8", "min": 0.40241456031799316, "scale": 0.0011375625928243002, "original_dtype": "float32"}}, {"name": "StatefulPartitionedCall/functional_1/sequential_13/batch_normalization_12/FusedBatchNormV3/Offset", "shape": [64], "dtype": "float32", "quantization": {"dtype": "uint8", "min": -0.588606337706248, "scale": 0.006924780443602918, "original_dtype": "float32"}}, {"name": "StatefulPartitionedCall/functional_1/sequential_12/batch_normalization_11/FusedBatchNormV3/Scaled", "shape": [128], "dtype": "float32", "quantization": {"dtype": "uint8", "min": 0.26813504099845886, "scale": 0.0005906161139993106, "original_dtype": "float32"}}, {"name": "StatefulPartitionedCall/functional_1/sequential_12/batch_normalization_11/FusedBatchNormV3/Offset", "shape": [128], "dtype": "float32", "quantization": {"dtype": "uint8", "min": -0.7345231916390214, "scale": 0.004962994538101496, "original_dtype": "float32"}}, {"name": "StatefulPartitionedCall/functional_1/sequential_11/batch_normalization_10/FusedBatchNormV3/Scaled", "shape": [256], "dtype": "float32", "quantization": {"dtype": "uint8", "min": 0.17800705134868622, "scale": 0.0006760151362886615, "original_dtype": "float32"}}, {"name": "StatefulPartitionedCall/functional_1/sequential_11/batch_normalization_10/FusedBatchNormV3/Offset", "shape": [256], "dtype": "float32", "quantization": {"dtype": "uint8", "min": -0.5332265061490676, "scale": 0.004070431344649371, "original_dtype": "float32"}}]}]}